models/03_numberclassifier.pth (torch, 322039 bytes, 6 tensors)

layer.0.weight f4 [15, 1, 3, 3]
00000000: 7185 663e bb4d f13c 3e6d 6e3f 0630 1a3f
00000010: 0f15 413e d599 eb3e 9878 15bf f936 28bf
00000020: 0e43 23bf ee44 743f 1833 aa3e 41ac debe
00000030: 68ff 803f 83cb 75be cd26 41bf bca8 723f
00000040: 8b75 aabe af91 26bf b6b6 803d db56 81be
00000050: a545 5f3e fbfe e7be eec3 71be cb97 c73e
00000060: e1fd 11bf ae2c 363e 7217 be3e c3cc 81be
00000070: b1b7 5fbe 0213 12bf 562c 2fbf 200f 5cbe
00000080: 7d04 6bbe 64b1 76be 1a8c 07be ca66 ba3e
00000090: beb7 cc3c f097 a0be 52f0 a93e 73f0 7dbc
000000a0: 28c5 153f d150 533e 8288 eb3d 6e38 e33e
000000b0: 218a f63e 25c9 f63e 5c5d 423f c1c1 d93e
000000c0: 1e58 77be 2f4c 5f3d 9d8a 61be 0b26 52bf
000000d0: 2f6d 02bf dfc3 42bf 5d91 85be 4c14 eb3e
000000e0: c3d1 603f 2387 5b3d 2772 8abe 4bff 6a3f
000000f0: 1db3 28bf ccda 12bf ed68 93be 01be ae3d
00000100: cb1e 123e b888 e8bd 0123 9e3e 7761 973c
00000110: 22fa dbbc ea7f 0fbf 800c 0dbe d354 8b3e
00000120: 220e a73e f686 163e 2890 353e a81b 293e
00000130: e4b0 5c3e 2baf 883e f4d8 a83d 5056 0abb
00000140: 4421 23be a792 32bf 2d34 28bf d0a0 45bf
00000150: 3acb d73e 9d81 22be 2645 8e3e 4acc 643f
00000160: edd4 b23e 70f0 303f aa80 87bf c46a a53e
00000170: 2e77 e73e 6420 83be 2881 043f fd84 1f3f
00000180: 7e41 44be bf17 68be c200 d33c 9766 c3be
00000190: e542 603d 9e81 81be b634 1fbf fc76 83bd
000001a0: e124 d9be b89a 4ebc a577 e9bc cb0e ff3c
000001b0: 3083 153f d33c dc3d eae9 e7be 9a98 b53e
000001c0: e94a 65be 7272 29be 5270 383d 26e4 083f
000001d0: c6c3 813d bf25 d5be 8777 843e 38c8 2abf
000001e0: d127 1a3c 852a 6a3c a1bc 2c3f 89e5 27bf
000001f0: 21a6 0b3f fc13 7d3f 5887 1abf 91c1 b9be
00000200: 59ed 403f 5ef2 7cbf bc3d edbb cb37 893f
00000210: 39d9 d1be 302c 3d3d 92e7 733e
0.22511841 0.02945601 0.9313544 0.6022953 0.1885569 0.46015802 -0.58387136 -0.6570888
-0.6377419 0.9541768 0.33242106 -0.43490794 1.0077944 -0.24003415 -0.7544983 0.9478872
-0.33292803 -0.65066046 0.06284849 -0.25261578 0.21803911 -0.45311722 -0.23609897 0.38982996
-0.57028013 0.17790481 0.37127262 -0.25351533 -0.21847416 -0.57060254 -0.68427026 -0.21490145
-0.22950931 -0.24091107 -0.13237038 0.36406547 0.024989959 -0.3136592 0.33191162 -0.015499222
0.5850396 0.20636298 0.11500646 0.4437899 0.4815226 0.48200336 0.75923705 0.42530635
-0.24154708 0.054516014 -0.22025533 -0.820893 -0.5094785 -0.76080126 -0.26087466 0.45913923
0.8782007 0.053595673 -0.27040216 0.91795796 -0.65898305 -0.5736511 -0.2879099 0.08532334
0.14269559 -0.11354202 0.3088608 0.018479092 -0.026852671 -0.56054556 -0.137743 0.27213153
0.3262797 0.14699921 0.17730772 0.16514456 0.21551853 0.26696143 0.082445055 -0.0021108575
-0.15930659 -0.69755024 -0.65704614 -0.77198505 0.42147237 -0.15869756 0.2778713 0.8937422
0.34928074 0.6911688 -1.058614 0.32308018 0.45208114 -0.2561065 0.51759577 0.623123
-0.19165608 -0.22665308 0.025757197 -0.38164207 0.054751296 -0.25294203 -0.62189806 -0.06419179
-0.4241095 -0.01261013 -0.028499434 0.031134984 0.584033 0.10753789 -0.4529565 0.35467988
-0.22391857 -0.16547564 0.045028992 0.53473127 0.06336169 -0.4163036 0.25872442 -0.6671176
0.009408907 0.014292364 0.67475325 -0.6558462 0.5455037 0.9885862 -0.6036277 -0.36280492
0.75362164 -0.9880732 -0.0072400253 1.0720152 -0.4098604 0.04618472 0.23818806

layer.0.bias f4 [15]
00000000: a576 043f eead 4e3e 07ce 6a3e 49f9 05bf
00000010: 3073 02be 26b3 a6be 8d09 4d3e e622 aa3c
00000020: dbca 89be ce8d 1b3f d09a f23e abef d2be
00000030: c19e 733e 42cf 2f3f 27a1 013e
0.5174354 0.20183536 0.22930156 -0.52333504 -0.12739253 -0.32558554 0.20023175 0.020768594
-0.2691258 0.6076325 0.47383738 -0.41198477 0.23791029 0.68675625 0.12659131

layer.2.weight f4 [10, 15, 3, 3]
00000000: b473 a23e 5614 e93e a116 3d3f c33c 2b3e
00000010: 1a64 a63e 2963 fd3e 8ff2 ba3e 2128 9f3e
00000020: ea93 9abd c47b bc3b b6ec d3bb 5a3c 15be
00000030: 523b 2f3d 02fe 143e 980e 933d bd90 953e
00000040: b782 80be 63e6 3abe 94d9 29be a62f 10be
00000050: ac68 10be 5c05 b3bd d5fb 63bd 578d 12be
00000060: 3aea d9bd 4fc1 f33c 1ae9 5a3d 33ba 5d3d
00000070: 670c 08be 0392 aabe 2af4 d73c f7df fdbd
00000080: e036 47be 4c50 abbd b689 183d 43d7 943d
00000090: 6ac6 9ebc 2fab 463e 8266 6b3e 7f88 02be
000000a0: d32c 00be 47e5 4bbd b9ab 09bf 67d6 b1be
000000b0: f76e ab3d 90c3 b83e 4911 8b3e 039b 793e
000000c0: 6db0 34bd 65ba 88bd 692a 3a3e 3ea9 0b3f
000000d0: 30cb b73e 3f31 c83e e84b b03d 1e2b ba3e
000000e0: 5821 403f 8af1 403e 6db7 733e 852f b43e
000000f0: ac41 933e c1c4 803e d024 94be e89d 2f3b
00000100: 5749 483d 6635 333d 55f8 143d 713d ec3d
00000110: 69a1 a83c 13fb 1b3d 46dd f73d df43 573b
00000120: 1706 8c3d e9f8 96bc e4c3 903d d33f b53d
00000130: ab9c 843d d296 2b3e 91cf 833d 38e7 70bd
00000140: 3cba 36bd 1318 0b3f c57f f83e fd1f 8f3e
00000150: a755 8cbd 2fa0 f2bd 7804 c3bd 4b2c a0be
00000160: e236 2abe 8966 b73c 0ade 553d 4293 c83e
00000170: 5d61 173f 2ce1 dcbd 89ae 4d3d 58c9 863d
00000180: 4c54 9abe 4baf 23b5 fd32 08be 522a 94bc
00000190: 0366 613b 1a60 f8bd e370 483d 2de2 e2bd
000001a0: 99b3 33be 94a3 683d 7aed 7939 1c72 f63b
000001b0: 67a2 843d 53f5 1bbe 3466 ddbd c5a2 f8bd
000001c0: 6c30 5f3d 8f06 673e a4bc 12be be49 53be
000001d0: 66a7 5bbe 8c2a 593d 0e2b 4d3e b642 9f3e
000001e0: 628a acbe 42fa f13c 5a97 7ebe 8e1b e8be
000001f0: cd3b f4bd d449 8c3d 53a6 04be 2c94 443e
00000200: ef8e 003e 6859 95be fc46 4cbd a7ed c7bc
00000210: c087 d8bd 194f 2abc 1b31 61be ff89 f33c
00000220: 54be a53d 2c8d 153d 4405 b53d 6f62 a33c
00000230: 241d d13d b7bf 13bb 8596 663d 7a5e b73c
00000240: 7811 a2bd e704 803c 16f4 383d ddf5 db3d
00000250: 6137 073e 1efe 97bc 75c5 dfbb 0d91 c33a
00000260: 9dee 69bc a518 f9bb 6d30 60bd f74a 88bd
00000270: 8146 95bd df0f 06bb 1a44 533d 0596 e9bd
00000280: 20c5 383c c6d6 b0bd a38d 4dbd 8b3f bd3c
00000290: 4347 dfbc 0c50 5b3c d32c 08bc e58f f3bc
000002a0: beca 9dbc 359e a6bc e933 603d de6b 833c
000002b0: 5d69 a53d 8a19 753d e00b 8c3d 1e7a acbc
000002c0: 0001 4f3d f6d2 e03d f509 41bd a128 343c
000002d0: a6c3 8dbd 441a dabd 5ce2 62bd 41ad 92bd
000002e0: c290 4ebd 5abb b1bc 6a6c 073d d85a d3bd
000002f0: 04a7 f03c a7ab de3c b567 40bd c4a0 b1bb
00000300: 3160 6fbd c7c8 5abc 3d25 69bd 8521 1abd
00000310: 9111 b03c 28e4 3abc b1d5 bcbd 06ee 873d
00000320: fad4 e3bc 915c f03c 83cb 5c3d ace4 bfbc
00000330: 7131 0cbd 613d 4abd 651a 253a 3c0f 553c
00000340: 7f2e c63c 331b 913d 88df 2cbd f278 6dbd
00000350: ecf5 993d d242 b53c d7bd edbb 0065 693d
00000360: 13ff bbbc a4d9 84bc b657 0f3d 77f3 1abd
00000370: 770f bdbc 197b 0abc bc2b b4bc dc33 993d
00000380: 3029 963b 10d4 69bc d01a 723d 564c 2fbd
00000390: fc1c a4bd 9502 03bd a051 a03a c9c6 95bd
000003a0: 105c ab3d 81c6 ac3c 8e69 e4bd f7c0 75bd
000003b0: 1da4 a3bd 31b4 8fbc f5c6 ebbc eb7e 9f3d
000003c0: 85b8 09bd 38ae a4bd f207 7dbd 3e01 d5bc
000003d0: 33fb 123d b03c bb3b 1a3f 70bb 59b4 b8bc
000003e0: ae64 143c 8f6f ae3d a5c1 603d a07c 183d
000003f0: 0ccd 2fbc 7f31 74bd 9667 353d de98 103d
0.317289 0.45523328 0.73862654 0.16722398 0.32498246 0.49489716 0.36513183 0.31085303
-0.075477436 0.0057520587 -0.006467427 -0.14573804 0.04278118 0.14550021 0.07180518 0.2921199
-0.25099728 -0.18251948 -0.16586906 -0.14080676 -0.14102429 -0.087412566 -0.055660088 -0.1431173
-0.10640378 0.029755263 0.05344496 0.05413265 -0.13285981 -0.33314523 0.026361544 -0.123962335
-0.19454527 -0.08364925 0.037240706 0.072676204 -0.01938172 0.19401239 0.22988322 -0.12747382
-0.12517099 -0.049779203 -0.5377765 -0.34733889 0.08370774 0.36086702 0.27161625 0.24375539
-0.044113565 -0.06676177 0.1818024 0.5455512 0.35897207 0.39100072 0.08608228 0.3636102
0.7505088 0.1884214 0.2380044 0.35192505 0.2876104 0.2515011 -0.28934336 0.0026797
0.048898067 0.043752097 0.03636964 0.115351565 0.020584779 0.03808124 0.121027514 0.003284685
0.06837099 -0.018429236 0.07068613 0.08850064 0.064751945 0.16756752 0.064360745 -0.058814257
-0.0446112 0.5433361 0.4853498 0.27954093 -0.068522744 -0.11846959 -0.09522337 -0.31283793
-0.16622499 0.02238776 0.052213706 0.3917485 0.5913294 -0.107851356 0.050215278 0.06581372
-0.30142438 -6.0977317e-07 -0.133007 -0.018086586 0.003439308 -0.12127705 0.048935782 -0.11078296
-0.1754898 0.056796625 0.00023834957 0.007520927 0.06476288 -0.15230303 -0.10810509 -0.12140421
0.054489538 0.22561096 -0.14329773 -0.20633599 -0.21450576 0.05301909 0.20035955 0.31105584
-0.33699328 0.029538278 -0.24862424 -0.45333523 -0.119254686 0.06850019 -0.12954073 0.19197148
0.12554525 -0.29169774 -0.049872383 -0.024405314 -0.10572767 -0.010394835 -0.21991388 0.029728888
0.08092943 0.036511585 0.08838895 0.019944398 0.10210636 -0.002254469 0.05629589 0.022383917
-0.07913488 0.015627338 0.045154653 0.10740254 0.13204719 -0.01855379 -0.0068289586 0.0014920548
-0.014278081 -0.007601815 -0.054733682 -0.066549234 -0.07288838 -0.0020456237 0.05157862 -0.11405567
0.011277467 -0.08634715 -0.050183903 0.023101589 -0.02725566 0.013385784 -0.008311468 -0.0297317
-0.019261714 -0.02033911 0.054737005 0.016042646 0.08076737 0.05983881 0.068382025 -0.021054324
0.050538063 0.109777376 -0.047128636 0.010996015 -0.069220826 -0.10649541 -0.055391654 -0.07161952
-0.05043102 -0.021695781 0.033062376 -0.103200614 0.029376514 0.02718146 -0.046973903 -0.005420776
-0.058441345 -0.013353533 -0.05692028 -0.037629623 0.021492751 -0.011406936 -0.09220446 0.06637196
-0.027811516 0.029341014 0.05390502 -0.023424469 -0.03422684 -0.04937494 0.00062981836 0.01300412
0.024192093 0.07085266 -0.042205364 -0.05797667 0.07517609 0.022126589 -0.0072552967 0.056981087
-0.022948777 -0.01621706 0.034995757 -0.037829842 -0.023078663 -0.0084522 -0.02199351 0.074805945
0.0045825467 -0.014271751 0.0591076 -0.04279741 -0.08013341 -0.031984884 0.0012231357 -0.07313306
0.08367169 0.021090748 -0.111529455 -0.05999848 -0.079902865 -0.017541977 -0.028781394 0.077878796
-0.033623237 -0.08041042 -0.061775155 -0.026001569 0.035884093 0.0057140216 -0.0036658705 -0.022546934
0.009057207 0.08517372 0.054872174 0.037228227 -0.010730039 -0.059617516 0.04428824 0.035302036

layer.2.bias f4 [10]
00000000: b460 6cbd 7323 303d cf2d cb3d b525 75bc
00000010: db84 463d d989 183a 3a8b 3bbd 0e39 c1bd
00000020: 434d 8f3e c22f 98bc
-0.05770941 0.043002557 0.09920847 -0.014962603 0.048466545 0.0005818881 -0.045787074 -0.094347104
0.27988634 -0.01857746

classifier.1.weight f4 [10, 7840]
00000000: 33d1 d6bb fe56 823c e7cc cabb 26e0 9dba
00000010: b7a3 94b9 28ee 193c c87b e13a 9476 9a3b
00000020: ffe4 613b 08d1 66bb c8de 0b3c 153f 463c
00000030: 8907 58bb 9612 a53b 94b6 383b 9124 293c
00000040: dd42 073c 495f 473c d94f 96bb e9cc 283b
00000050: 798c 0a3c fae4 b1ba 1628 203b 9bfe e23b
00000060: ebae b73b a8c0 36bb 0e97 843c 5f05 953a
00000070: 7b1e 103c 8e50 ac3c 54d7 19bc 81f1 d53b
00000080: 23aa 8fba d04f 14bc 8e49 1cbc bd0e 063c
00000090: 63f6 56bb e2bd f9ba a523 1d3c b5b2 f03b
000000a0: 0339 d3ba e619 483c 5ffe fb3b 23a6 c83c
000000b0: bd88 ee3c 00bd 063d c9cf ef3c 1884 343d
000000c0: 7216 783c cb94 103c 1dd2 f639 ed26 99bb
000000d0: 277f 47bb 3a62 74bc 74ec c0ba 0c5c 513c
000000e0: 363a 1fbc 5295 24bc 6edb 143c efba 1e3b
000000f0: fd07 83bb 365d 91bb 95df 803b a6b9 983b
00000100: 73df 883b 7249 d7ba 6026 153c 4d37 5c3b
00000110: c5b6 a23c fd48 9e3c 3dfd 973b 9d0c 7c3c
00000120: 7ff1 1f3c 11a5 833b 4c41 3f3c bd7e 913b
00000130: 54d5 88bb c11a 193c 730e 053c 2fd2 cebb
00000140: a945 5e3b e002 07bc 4393 05bc 008c 443c
00000150: 796c f8bb 3609 1b3c 58b7 19bc 6262 afbb
00000160: 407c 643b 189b 1a3c 180b 5a3c d342 b5bb
00000170: e0e6 f23b 3308 993c 55c6 293c e109 a53c
00000180: 38ff 893c d9c7 22bb 8aa1 703c 7302 123c
00000190: 4e9c 083c da0a 223c 641c d53b 0dc5 45b9
000001a0: cebe 1ebc 0cb9 d83b e6b3 503c 0339 883b
000001b0: ef90 43bb 5fe1 04bc 8986 663a 49ff 33bb
000001c0: 28a1 09bc 9eee d8bb 13bd 01bc a834 2c3b
000001d0: 5afe 3cba c024 3ebb 2bed 823b 721a 123c
000001e0: a962 843c 3f40 6a3c 87a4 0b3a 0fd0 9f3c
000001f0: 910f 883c 9050 af3b 2725 b3ba c235 493c
00000200: 7478 b93a 7454 c2bb c56c e5bb 32c1 5fbb
00000210: 6753 51bc 5502 05bc a3b5 4fbb 5191 013c
00000220: bc07 a3bb 0839 3d3c 26eb c53b 6ee5 603c
00000230: ef2b ce3b 1889 dd3a 76e0 683b 77d5 22bb
00000240: 75fb 1fbc eb75 dcbb 0925 9b3b 56e2 a4bb
00000250: 058d 92ba 77ca d6bc 6242 83bb 040d 63bd
00000260: fd32 6cbd 0e4e 22bd db3c 67bc 3b73 3ebc
00000270: 9908 36bb 81c7 78bc 1f6d 2bbc 3d8a 823c
00000280: c656 d53c f9ac 963c 955e b5bb de50 97bb
00000290: 37da 92bb 4a25 023c 32e1 433b 4b55 893a
000002a0: 39f4 0e3c 74e3 01bb bfd2 cfbb 01a9 c6bb
000002b0: 753e 8dbc de3a acbc d779 ecbb f46e a6bc
000002c0: 7120 e6bc 8b82 42bd fddf b8bd 5933 adbd
000002d0: 2b31 9abd 62e0 6dbd ecab 98bd 3b9b 8bbd
000002e0: 193c d1bc b636 a7bd b325 a4bd 0d4b 5dbd
000002f0: a204 8dbc f784 0abd 10c6 37bd ccbe 03bd
00000300: 3426 e1bc 4865 4bbb d9af b03a f84b 0cbc
00000310: 783f 33bc b76e 2d3c 1ee2 05b9 ff33 ff3b
00000320: eaa5 e43a 62d2 cabc f37a d8bc 7998 3dbd
00000330: c04d 3fbd 1c9c 41bd 007b c4bd 743c cbbd
00000340: fddb 78bd a66d eb3c cae3 b2bc 9c33 c83a
00000350: e9b8 0cbd ed98 1ebd 032f 56bd b2aa 40bc
00000360: fd48 f4bc 8629 33bd cb02 783b b8d9 2c3c
00000370: f572 623b fb8c 433b b90d 63bb 64ac 4a3b
00000380: 5654 22bc 46a7 1b3c 7489 9f3b d630 203b
00000390: c95f 293a 5701 d5bb bba1 e1bc 9b64 51bd
000003a0: b17e 89bc 921d 87bc 2452 bfbc a39c 9f3c
000003b0: 2620 d5bc f83b f83b 0edd 1abd 6c09 1cbd
000003c0: c514 403d b044 c7bc f5a7 b13c 4b35 04bd
000003d0: 1e1e 843c 8734 5d3c 8ae9 03bc 9489 ca3b
000003e0: 075a 373b ae35 41bb 5d00 f3ba c3c5 54bb
000003f0: 42dc f93b acf6 3ebc ecc1 42bc df76 c7bb
-0.0065557 0.015910622 -0.006188977 -0.0012044951 -0.00028350737 0.00939516 0.0017203027 0.0047138426
0.0034468768 -0.0035219807 0.008537002 0.012100001 -0.0032963476 0.005037616 0.0028184997 0.0103236595
0.008255688 0.012168714 -0.0045871553 0.0025756902 0.008456343 -0.0013572269 0.0024437956 0.006927324
0.0056055686 -0.0027885828 0.01618531 0.0011369399 0.00879633 0.021034505 -0.009389717 0.0065290336
-0.0010960739 -0.009052232 -0.009539021 0.008182225 -0.0032800667 -0.0019053782 0.009591018 0.0073455223
-0.0016115013 0.012213206 0.0076902355 0.024493283 0.029117936 0.03289509 0.029273884 0.044071287
0.01514207 0.0088245375 0.00047077323 -0.00467383 -0.003044078 -0.014915997 -0.0014718906 0.012778293
-0.009718468 -0.010045366 0.009085519 0.0024220308 -0.003998755 -0.0044361604 0.003932903 0.004660803
0.004177028 -0.0016425087 0.009103388 0.0033602298 0.019862542 0.019321913 0.0046383427 0.015383867
0.009762167 0.00401748 0.011673283 0.004440157 -0.0041758213 0.009344758 0.008121121 -0.006311677
0.0033916032 -0.008240432 -0.008152786 0.011996269 -0.0075812903 0.009462645 -0.009382091 -0.0053523043
0.0034864098 0.009436391 0.013308309 -0.0055316477 0.0074127764 0.018680668 0.010362227 0.020146312
0.01684533 -0.0024838357 0.014686951 0.008911717 0.008338047 0.0098902825 0.0065036286 -0.00018860791
-0.009689046 0.006613856 0.012738204 0.004157187 -0.0029841026 -0.008110373 0.0008793851 -0.0027465394
-0.008400239 -0.0066202423 -0.007918614 0.0026276503 -0.0007209532 -0.0029013604 0.003995558 0.008917438
0.016160326 0.014297544 0.00053269457 0.01950839 0.016608985 0.00535018 -0.0013667688 0.012280883
0.0014150278 -0.0059304778 -0.0070014917 -0.0034142253 -0.012776232 -0.008118232 -0.0031693957 0.007908181
-0.0049752872 0.011549242 0.006039995 0.013726575 0.0062918584 0.0016901819 0.003553418 -0.0024846473
-0.009764542 -0.006727924 0.0047346395 -0.005031864 -0.0011180943 -0.02621959 -0.004005716 -0.055432335
-0.057665814 -0.03962522 -0.01411363 -0.011624153 -0.002777612 -0.015184284 -0.010463028 0.015935058
0.026042353 0.018393027 -0.0055349567 -0.0046177944 -0.0044815796 0.007943461 0.0029888866 0.001047769
0.008725219 -0.001981941 -0.0063422616 -0.0060626273 -0.017241696 -0.021024164 -0.007216673 -0.020316578
-0.028091641 -0.047487777 -0.090270974 -0.084570594 -0.07528909 -0.058075316 -0.074546665 -0.06816717
-0.025541352 -0.08164732 -0.08015003 -0.054026652 -0.017214123 -0.03381821 -0.04486662 -0.03216438
-0.027484037 -0.003103571 0.0013480141 -0.008563034 -0.010940425 0.0105854785 -0.00012768104 0.007788181
0.0017444466 -0.024758521 -0.026425814 -0.046287987 -0.046705008 -0.047268018 -0.09593773 -0.0992364
-0.060756672 0.028738808 -0.021837134 0.001527417 -0.03435603 -0.03872006 -0.052290928 -0.011759447
-0.02981996 -0.04374077 0.0037843462 0.010549955 0.0034553383 0.002983867 -0.003464563 0.0030925507
-0.009907803 0.00950033 0.0048686806 0.002444317 0.00064611115 -0.006500404 -0.02754294 -0.051121335
-0.016784044 -0.016493592 -0.023354597 0.01948387 -0.026016306 0.007575508 -0.03780847 -0.038094923
0.046894807 -0.024324745 0.021686533 -0.032277387 0.016127642 0.013501293 -0.0080512855 0.0061809514
0.0027977244 -0.0029481458 -0.0018539537 -0.0032466508 0.0076251337 -0.011655491 -0.011887055 -0.0060871686

classifier.1.bias f4 [10]
00000000: 729e a0bc 15b3 823a 9bec f33b 7655 2eb9
00000010: 9881 b4bb 7ad9 0f3d 7ff1 22bc 97f3 873c
00000020: 7435 69bb b982 e9bc
-0.019606803 0.0009971583 0.007443977 -0.0001662577 -0.005508613 0.03511951 -0.0099452725 0.016595645
-0.003558484 -0.028504716
